5_semester/DSP/lab2/.dart_tool/chrome-device/Default/optimization_guide_prediction_model_downloads/31f1bf1e-8698-49a3-b922-d0eeba78c08c/model.tflite (tflite, 67216 bytes, 5 tensors)

dnn/hiddenlayer_1/bias/part_0 f4 [64]
-0.07215316 0.100979544 0.06238084 -0.09643554 -0.08600945 -0.011934958 0.0564827 0.0039486955
-0.034431867 0.009722127 -0.0073176194 -0.012834881 -0.19981346 -0.017207159 -0.026766917 -0.14724553
0.08905478 -0.048534766 -0.013206821 -0.06853829 0.013955568 0.0109708365 0.123235315 0.04552433
0.09143413 -0.12622005 0.0008305671 -0.15313147 0.022997154 -0.01965631 0.086459406 -0.17628717
0.1365773 -0.044739455 0.14126632 -0.057620935 0.05818939 -0.04000066 -0.07268573 -0.09615356
0.06560423 0.05678829 -0.11851448 -0.054011673 0.011962822 0.11815995 -0.038671687 0.10203344
-0.06277205 0.05885229 0.045049224 0.015314268 -0.12818336 -0.02224934 -0.09559395 -0.08981321
-0.1380713 -0.087186515 0.009733068 -0.08542865 0.028242383 -0.02923499 -0.036520433 -0.040565457
00000000: 09c5 93bd 5dce ce3d 0d83 7f3d ff7f c5bd
00000010: b925 b0bd d88a 43bc 675a 673d 0f64 813b
00000020: 6e08 0dbd 8e49 1f3c a4c8 efbb 6549 52bc
00000030: e69b 4cbe 07f6 8cbc 4b46 dbbc 88c7 16be
00000040: 5a62 b63d 64cc 46bd 6c61 58bc ce5d 8cbd
00000050: e5a5 643c 06bf 333c cc62 fc3d b877 3a3d
00000060: d141 bb3d d43f 01be 6aba 593a 7fce 1cbe
00000070: 8764 bc3c 4506 a1bc a111 b13d a084 34be
00000080: ebda 0b3e b840 37bd 1ea8 103e ee03 6cbd
00000090: ff57 6e3d bbd7 23bd 42dc 94bd 28ec c4bd
000000a0: 835b 863d d79a 683d b8b7 f2bd 583b 5dbd
000000b0: b6ff 433c d8fd f13d 3466 1ebd e8f6 d03d
000000c0: a28e 80bd 190f 713d 8985 383d b2e8 7a3c
000000d0: 8042 03be 3f44 b6bc c3c6 c3bd fdef b7bd
000000e0: 9062 0dbe d88e b2bd 7277 1f3c 37f5 aebd
000000f0: 925c e73c 387e efbc 7396 15bd f727 26bd

dnn/hiddenlayer_0/bias/part_0 f4 [128]
-0.015474304 -0.2501148 0.021919096 0.08967912 -0.096115336 -0.0061745974 -0.013777044 -0.036053166
0.039848797 0.026490923 -0.06649618 -0.030398209 0.049613196 -0.20051192 -0.038618628 0.016338626
-0.12868817 0.020065354 0.027915023 0.099745795 -0.021865632 0.039664533 -0.06745414 -0.1170075
-0.036587887 0.014901099 0.00013666782 0.05576619 0.10948897 -0.118590064 -0.10293338 0.014405271
0.004137962 -0.120513104 -0.056919385 0.013250384 -0.020302173 0.010186434 -0.05469091 -0.020633886
-0.060710087 -0.106574945 0.10693325 0.006698531 -0.050638605 -0.070500255 0.013564846 0.09426877
-0.011091338 -0.091873065 -0.020611875 -0.27028072 0.006251566 0.055776976 -0.004632247 -0.04367707
0.08036576 -0.008893848 -0.06856192 0.11704611 0.0031555493 -0.063567646 0.04981792 -0.079203986
-0.073223315 0.08276808 0.049219087 -0.016611528 0.03879429 0.068055846 -0.13241988 0.08312834
-0.15748347 -0.035827085 0.029350707 -0.023552898 0.14014205 -0.03767883 -0.018814493 -0.07071184
0.019055022 -0.006551095 -0.067494914 0.00079979206 0.07373321 -0.061450023 -0.07712285 -0.09660348
-0.104271375 0.0062699127 -0.056677233 -0.015839834 0.049490437 -0.02288176 0.021882236 0.07653887
-0.057841104 0.01499412 0.07742898 0.057894625 0.025740098 -0.083736174 0.0070680124 0.08308245
-0.07074572 -0.024299113 -0.06532334 0.06192698 -0.12746736 0.058134127 -0.042595617 0.013538265
-0.0061804154 -0.06552896 0.060795955 -0.13115904 -0.07065079 -0.12555526 -0.09980807 0.015127465
-0.08088748 0.054372124 -0.034234475 -0.012577093 0.0013469007 -0.030356638 -0.0728306 -0.0024765793
00000000: ef87 7dbc 0c0f 80be ad8f b33c b0a9 b73d
00000010: 1ed8 c4bd 4754 cabb 1cb9 61bc 7cac 13bd
00000020: 7e38 233d 7e03 d93c 262f 88bd aa05 f9bc
00000030: 3537 4b3d ff52 4dbe 912e 1ebd 95d8 853c
00000040: d5c6 03be 1960 a43c 0cae e43c 8647 cc3d
00000050: 8e1f b3bc 4777 223d 6525 8abd a1a1 efbd
00000060: 2edd 15bd bd23 743c 7d4e 0f39 176b 643d
00000070: c13b e03d 59df f2bd bcce d2bd 1604 6c3c
00000080: be97 873b 93cf f6bd 4d24 69bd 2318 593c
00000090: be50 a6bc 00e5 263c 9303 60bd 6508 a9bc
000000a0: 24ab 78bd f743 dabd d2ff da3d 5a7f db3b
000000b0: 6d6a 4fbd 7062 90bd 163f 5e3c fc0f c13d
000000c0: 71b8 35bc f227 bcbd 3cda a8bc 3c62 8abe
000000d0: f0d9 cc3b 6676 643d 1bca 97bb bae6 32bd
000000e0: ce96 a43d 81b7 11bc 316a 8cbd dfb5 ef3d
000000f0: 55cd 4e3b c12f 82bd e00d 4c3d b335 a2bd
00000100: 1bf6 95bd 5082 a93d f499 493d e614 88bc
00000110: c3e6 1e3d dd60 8b3d 1499 07be 313f aa3d
00000120: 5943 21be 6cbf 12bd e570 f03c 02f2 c0bc
00000130: 6681 0f3e 1e55 1abd da20 9abc 5fd1 90bd
00000140: 4719 9c3c 91aa d6bb c63a 8abd 23a9 513a
00000150: 7001 973d 05b3 7bbd 96f2 9dbd 0cd8 c5bd
00000160: 3b8c d5bd d773 cd3b 6326 68bd 8ac2 81bc
00000170: 7cb6 4a3d 8772 bbbc 6042 b33c 69c0 9c3d
00000180: cbea 6cbd e6a9 753c 1693 9e3d ea22 6d3d
00000190: e6dc d23c df7d abbd c99a e73b 2227 aa3d
000001a0: 22e3 90bd ef0e c7bc 3ec8 85bd 25a7 7d3d
000001b0: ce86 02be 0d1e 6e3d be78 2ebd 99cf 5d3c
000001c0: 1585 cabb 0c34 86bd 2e05 793d 8e4e 06be
000001d0: 5db1 90bd 8f91 00be 2c68 ccbd 30d9 773c
000001e0: 56a8 a5bd 4eb5 5e3d 7339 0cbd 2710 4ebc
000001f0: 7d8a b03a 7cae f8bc 3628 95bd 1b4e 22bb

dnn/hiddenlayer_0/MatMul f4 [128, 12]
-0.16182302 -0.049662396 0.019042062 -0.18003117 0.18520147 0.013816663 0.06508583 -0.124765135
-0.2151697 -0.0821465 -0.023168141 -0.0704479 0.09293961 0.010922476 -0.21352462 0.05269009
-0.027881742 0.04884305 -0.104072966 0.026267566 0.021863127 0.0068160556 -0.09233952 -0.027955709
0.01876138 0.042279407 0.08315227 0.1357397 0.112242736 -0.059074145 -0.07548889 -0.066576056
-0.12175743 -0.15550272 0.084539816 -0.27104256 0.12496587 -0.20304747 0.056323815 0.018526012
0.034985855 -0.07431675 0.21119581 -0.07242567 -0.02754872 -0.007255091 0.07325151 -0.13209726
0.14893022 0.09705671 -0.23623303 -0.13753809 -0.06146578 -0.009393969 0.056974668 0.15549669
-0.008318034 0.09544735 -0.1486101 0.02108171 -0.047808502 0.030789655 0.12394618 0.021170124
0.013153149 -0.10766563 0.07943473 -0.032625593 -0.034105316 0.18252699 0.15659398 -0.05816005
0.13865943 -0.14257732 -0.17878234 0.0036262975 0.07329433 0.035235256 0.17454834 -0.03555623
0.01157906 0.004895909 -0.2252681 0.114205204 0.15644328 -0.14173858 -0.124706574 -0.011236096
0.19081837 0.030427465 0.059829235 0.041678216 0.054294813 0.013050685 -0.096454605 0.23601103
0.11759739 0.14156264 0.1943146 -0.061178476 0.06836106 0.10322648 -0.054431774 -0.028359244
0.02071849 0.057336673 0.00104855 0.10658659 -0.05554059 0.110910706 -0.04330135 -0.13841929
0.17941944 -0.0803127 0.028423857 0.0999548 0.054795377 -0.18752375 -0.16045856 0.13241035
0.053633347 0.11322241 -0.18384662 0.22506002 -0.0083065275 -0.15797941 -0.2054346 -0.011304783
-0.006267569 0.0067329984 -0.11341252 0.10824573 -0.016245434 0.216619 0.012328458 -0.09697716
-0.14864238 0.2012948 0.053116225 0.14955367 -0.075549856 0.18550792 -0.0011833585 -0.19852355
-0.048318647 0.12511735 0.15971309 -0.055419777 -0.011493246 0.06948844 -0.21654484 0.17329541
-0.07478257 -0.020462126 0.09156686 -0.06991527 0.19038096 0.11761864 -0.22039591 -0.0012886601
0.12542292 0.051798508 0.017547842 0.13609953 0.015293691 0.040690698 0.037494626 -0.011108323
-0.10150503 -0.035634328 -0.013080363 0.011914251 0.16637063 -0.12271471 -0.1257025 0.011574464
0.052381225 0.013504921 0.0488555 0.2525925 0.054498475 -0.09242272 -0.1302458 -0.019381007
0.060938068 0.114952505 -0.051657267 -0.020382334 -0.1769246 -0.11162829 -0.01711222 -0.18999894
-0.036272503 0.030788202 -0.23942362 -0.024689535 -0.072533175 0.04141678 -0.20301959 0.045730945
0.0084966635 0.045301095 0.05054916 -0.25014144 -0.025507951 -0.02081556 0.05449597 0.054047246
-0.052160017 -0.103555724 -0.11852663 -0.09844139 0.13058884 -0.19843264 -0.16278158 0.043151032
0.0670187 0.010071622 0.37002185 0.0698919 0.14086485 0.18708946 0.0035857365 0.035043493
-0.13199358 0.06456896 0.048871566 0.2321415 -0.08022073 0.0061168233 0.07886114 0.06612212
0.030842395 -0.16532613 -0.16698058 0.11971205 -0.13057506 -0.08914563 -0.014771052 0.30797333
0.05804654 0.17461784 -0.13274634 -0.011267815 -0.0695489 0.05352193 -0.24094081 -0.10051143
-0.09332205 -0.029007133 -0.10438444 -0.22851247 0.14792648 0.09234268 -0.14622745 0.14411663
00000000: efb4 25be cc6a 4bbd 19fe 9b3c 175a 38be
00000010: 74a5 3d3e 495f 623c b84b 853d dd84 ffbd
00000020: 7255 5cbe 6d3c a8bd 1dcb bdbc fd46 90bd
00000030: 1f57 be3d 2ff4 323c 33a6 5abe 90d1 573d
00000040: 4068 e4bc a60f 483d 3524 d5bd 142f d73c
00000050: 4d1a b33c 3859 df3b 811c bdbd 5f03 e5bc
00000060: 77b1 993c 2c2d 2d3d bd4b aa3d 59ff 0a3e
00000070: 85df e53d bbf7 71bd eb99 9abd 0759 88bd
00000080: f65b f9bd 1b3c 1fbe 3623 ad3d 17c6 8abe
00000090: 1bee ff3d adeb 4fbe cdb3 663d ddc3 973c
000000a0: 544d 0f3d 6133 98bd b743 583e e953 94bd
000000b0: daad e1bc 1dbc edbb e304 963d 8144 07be
000000c0: 2a81 183e abc5 c63d 12e7 71be c9d6 0cbe
000000d0: 8bc3 7bbd 29e9 19bc 455e 693d 863a 1f3e
000000e0: 5d48 08bc e679 c33d 3f2d 18be 8db3 ac3c
000000f0: d9d2 43bd 963a fc3c 7fd7 fd3d f86c ad3c
00000100: 4e80 573c cc7f dcbd adae a23d 6aa2 05bd
00000110: 04b2 0bbd 5be8 3a3e 2c5a 203e 3c39 6ebd
00000120: bdfc 0d3e caff 11be b812 37be 2da7 6d3b
00000130: 561b 963d d852 103d cdbc 323e 69a3 11bd
00000140: 19b6 3d3c dd6d a03b aeac 66be 6be4 e93d
00000150: ab32 203e eb23 11be 2966 ffbd 9a17 38bc
00000160: e465 433e 0543 f93c 800f 753d c7b6 2a3d
00000170: 3d64 5e3d 8ad2 553c fe89 c5bd e0ac 713e
00000180: e7d6 f03d ccf5 103e 68fa 463e 4896 7abd
00000190: e200 8c3d 6868 d33d daf3 5ebd a551 e8bc
000001a0: d3b9 a93c dcd9 6a3d 806f 893a 124a da3d
000001b0: 887e 63bd 2725 e33d c25c 31bd c9bd 0dbe
000001c0: bbb9 373e fc7a a4bd 26d9 e83c 1ab5 cc3d
000001d0: 1e71 603d 3a06 40be 404f 24be 9496 073e
000001e0: a4ae 5b3d 27e1 e73d 4a42 3cbe 2276 663e
000001f0: 1a18 08bc 5bc5 21be 735d 52be b237 39bc
00000200: 2e60 cdbb 7ca0 dc3b d344 e8bd f0af dd3d
00000210: 2515 85bc 5fd1 5d3e 4dfd 493c f69b c6bd
00000220: b535 18be 3920 4e3e 6690 593d 9924 193e
00000230: e2b9 9abd caf5 3d3e ec1a 9bba c249 4bbe
00000240: c6e9 45bd c31e 003e d48b 233e d9ff 62bd
00000250: 2b4e 3cbc f54f 8e3d eebd 5dbe 5a74 313e
00000260: 9b27 99bd 30a0 a7bc 6887 bb3d bd2f 8fbd
00000270: 3af3 423e 0be2 f03d 77af 61be 42e8 a8ba
00000280: de6e 003e ac2a 543d 7ec0 8f3c ad5d 0b3e
00000290: 6492 7a3c 4aab 263d f793 193d afff 35bc
000002a0: dfe1 cfbd 4df5 11bd 054f 56bc fe33 433c
000002b0: 105d 2a3e da51 fbbd 28b8 00be d2a2 3d3c
000002c0: b28d 563d bf43 5d3c b41c 483d ce53 813e
000002d0: cb39 5f3d 1f48 bdbd 285f 05be ebc4 9ebc
000002e0: 329a 793d 386c eb3d 9296 53bd daf8 a6bc
000002f0: b92b 35be 5f9d e4bd ed2e 8cbc 158f 42be
00000300: 7a92 14bd 8a37 fc3c 772b 75be b541 cabc
00000310: 468c 94bd a4a4 293d 5ee4 4fbe 5f50 3b3d
00000320: 9735 0b3c a48d 393d a30c 4f3d 8a12 80be
00000330: 0df6 d0bc 6585 aabc 2b37 5f3d a560 5d3d
00000340: bea5 55bd 0615 d4bd 17be f2bd a49b c9bd
00000350: 15b9 053e ed31 4bbe 37b0 26be 23bf 303d
00000360: 1a41 893d 7203 253c 8173 bd3e 7c23 8f3d
00000370: e03e 103e 6194 3f3e adfe 6a3b c489 0f3d
00000380: 5329 07be bb3c 843d 8d2d 483d 80b6 6d3e
00000390: c44a a4bd a26f c83b f381 a13d 096b 873d
000003a0: 31a9 fc3c 414b 29be f5fc 2abe 972b f53d
000003b0: 78b5 05be fc91 b6bd 4802 72bc aeae 9d3e
000003c0: 35c2 6d3d 05cf 323e a8ee 07be a49c 38bc
000003d0: a76f 8ebd d039 5b3d 30b9 76be f0d8 cdbd
000003e0: a21f bfbd 5ea0 edbc 82c7 d5bd 2cff 69be
000003f0: 0a7a 173e 291e bd3d a6bc 15be 4f93 133e

dnn/hiddenlayer_1/MatMul f4 [64, 128]
-0.00046789998 0.12951314 -0.17501894 0.02860416 -0.15081277 -0.090526804 -0.1749944 0.08826018
0.117460735 -0.06297698 0.19295393 -0.1702941 -0.01939873 0.14371985 -0.12950118 -0.043176975
-0.17349029 0.120652795 0.1155133 0.17963995 -0.10696067 -0.078696005 -0.061701946 -0.08150518
-0.13895224 -0.11229953 -0.00811115 -0.13614957 -0.010355887 -0.17672063 0.10216856 0.064746074
-0.044105113 0.16082248 -0.057012845 0.06785938 0.0073674098 -0.032139808 0.13314229 -0.08383866
-0.043907035 -0.07630244 0.01531285 -0.11986476 0.10548077 -0.024320688 0.118621685 -0.04303948
0.093981385 0.04089126 -0.10220751 -0.112025365 -0.07552323 -0.053637877 -0.050364587 -0.1188312
-0.031062838 0.0918766 -0.04517078 0.0017210118 0.07404918 -0.17859644 0.08769463 -0.041527268
0.06012262 -0.12512016 -0.15443324 -0.04549335 -0.2003179 -0.18306991 0.18041122 0.094546355
0.004373418 -0.07579195 -0.099915065 0.17133823 -0.16903245 0.16081353 -0.0048338985 0.10213116
-0.04361569 -0.045746107 -0.18981726 -0.21490775 -0.23189498 0.076810144 -0.09867372 -0.027022522
-0.15904327 0.031334106 0.11818534 0.0065548974 0.090632424 0.13837416 -0.017204987 -0.033763424
0.072975695 0.069375426 0.20789422 -0.1857622 -0.07899738 -0.10761383 -0.13963202 -0.1605439
-0.14351399 0.12570778 -0.02493351 -0.10905619 -0.05676273 0.07462018 -0.080533415 0.109909296
-0.16214086 -0.0020688563 -0.1922953 0.07070711 -0.09081234 0.045847584 -0.10804413 -0.049324352
-0.033331946 0.008142249 -0.12008323 -0.14631526 0.17062704 -0.0017832061 0.14860336 0.12802643
0.012709361 0.21199454 -0.03826069 0.16467725 0.17905518 0.059859704 -0.12227666 0.062964104
-0.09082755 0.05101132 0.08419178 -0.02398267 -0.0005840925 0.16312587 0.17834388 0.14712243
0.21220559 -0.010814934 -0.045191552 0.18938842 -0.15271138 0.13233656 0.19229539 -0.08227883
0.0065462906 -0.112706676 -0.10949914 -0.15369777 0.10212983 -0.07998989 0.12232421 -0.054281116
0.16242748 -0.068263955 0.119999595 0.0069267736 0.16853687 -0.097671404 -0.107351445 -0.118566774
-0.05131695 0.044619765 0.108092524 0.10243689 0.1138377 -0.106799796 0.13611545 0.02805995
-0.050835606 -0.026274906 -0.07104136 -0.039844315 -0.16613418 -0.11405637 -0.08457645 -0.10872532
-0.12836576 -0.0861483 0.09436359 0.04933679 0.04753864 -0.01526529 -0.11778053 -0.014004871
0.1763247 -0.14229181 0.22721356 -0.053264476 0.027211817 0.062291108 -0.06065288 0.039614666
0.16119859 0.1486732 0.003837365 0.065433405 -0.0012441663 -0.024408797 0.14809315 -0.12800202
0.12538522 -0.038696885 0.058714956 0.0031240531 0.122035205 0.055722684 -0.17542553 -0.19885874
0.070549265 0.11802013 0.10777694 -0.03127211 0.060804464 -0.10313208 -0.09122074 -0.010457789
-0.12971707 0.18796231 0.018988475 0.1961947 0.20633793 -0.037211403 0.0066817696 0.023002693
-0.13003701 -0.11321291 0.02368634 0.037153464 0.12749466 0.032891303 -0.09235696 -0.0011408647
-0.0726099 -0.11139422 0.07546712 0.16050962 0.082203306 0.14871892 -0.04913951 0.15412164
-0.008107558 -0.053158883 -0.046606556 0.21595486 -0.0075118947 -0.074504524 -0.17336561 0.12365078
00000000: 7950 f5b9 189f 043e 2a38 33be 4553 ea3c
00000010: aa6e 1abe 1e66 b9bd bb31 33be c1c1 b43d
00000020: 418f f03d 13fa 80bd b795 453e 9461 2ebe
00000030: 16ea 9ebc 4c2b 133e f59b 04be 57da 30bd
00000040: 70a7 31be d018 f73d 3d92 ec3d 89f3 373e
00000050: 320e dbbd 5f2b a1bd 2ebb 7cbd 30ec a6bd
00000060: 7f49 0ebe 4cfd e5bd a1e4 04bc cb6a 0bbe
00000070: bdab 29bc 41f6 34be c03d d13d 9799 843d
00000080: 90a7 34bd a6ae 243e 4d86 69bd dcf9 8a3d
00000090: 506a f13b 08a5 03bd 7456 083e 9ab3 abbd
000000a0: ddd7 33bd 7444 9cbd bfe2 7a3c a87b f5bd
000000b0: 4d06 d83d 2e3c c7bc edef f23d 2a4a 30bd
000000c0: 5079 c03d 987d 273d 2c52 d1bd 8e6d e5bd
000000d0: ecab 9abd 64b3 5bbd 194b 4ebd c65d f3bd
000000e0: 7e77 febc cd29 bc3d ff04 39bd 9393 e13a
000000f0: 19a7 973d fce1 36be 3e99 b33d 7f18 2abd
00000100: 2343 763d 801f 00be bf23 1ebe 3c57 3abd
00000110: 2320 4dbe ae76 3bbe b8bd 383e 85a1 c13d
00000120: e44e 8f3b cf38 9bbd 45a0 ccbd 4a73 2f3e
00000130: d816 2dbe 4dac 243e ae65 9ebb 242a d13d
00000140: 5ea6 32bd 4560 3bbd 755f 42be c710 5cbe
00000150: e175 6dbe a34e 9d3d 7315 cabd 565e ddbc
00000160: 3ddc 22be 3158 003d 280b f23d 77ca d63b
00000170: 7e9d b93d f5b1 0d3e 79f1 8cbc 844b 0abd
00000180: 4874 953d b414 8e3d 39e2 543e 7238 3ebe
00000190: 61c9 a1bd a464 dcbd b2fb 0ebe 9f65 24be
000001a0: 55f5 12be 8ab9 003e 5c41 ccbc da58 dfbd
000001b0: 0980 68bd 77d2 983d b4ee a4bd 2018 e13d
000001c0: 4108 26be a695 07bb 0fe9 44be e4ce 903d
000001d0: d2fb b9bd adca 3b3d 3e46 ddbd 5508 4abd
000001e0: 1487 08bd 1167 053c 32ee f5bd abd3 15be
000001f0: dbb8 2e3e 78ba e9ba 7b2b 183e 5c19 033e
00000200: ec3a 503c 1915 593e 3eb7 1cbd 27a1 283e
00000210: 3e5a 373e 732f 753d 2f6c fabd 53f3 803d
00000220: cb03 babd 3ff1 503d bd6c ac3d 4e77 c4bc
00000230: c91d 19ba 780a 273e c79f 363e 43a7 163e
00000240: 6c4c 593e 1f31 31bc c71a 39bd 0aef 413e
00000250: 5f60 1cbe 3c83 073e 15e9 443e ce81 a8bd
00000260: 4482 d63b c2d2 e6bd 1641 e0bd f362 1dbe
00000270: 7229 d13d bdd1 a3bd 1e85 fa3d e055 5ebd
00000280: 6453 263e f9cd 8bbd 59c2 f53d fdf9 e23b
00000290: ee94 2c3e f207 c8bd 13db dbbd 23d3 f2bd
000002a0: b931 52bd 37c3 363d 9d5f dd3d 6fca d13d
000002b0: bd23 e93d dab9 dabd d961 0b3e fbdd e53c
000002c0: ff38 50bd 793e d7bc 227e 91bd cb33 23bd
000002d0: 141f 2abe 6396 e9bd 6b36 adbd 61ab debd
000002e0: 5072 03be 856e b0bd b341 c13d 6015 4a3d
000002f0: e1b7 423d 441b 7abc eb36 f1bd b074 65bc
00000300: 768e 343e f2b4 11be acaa 683e da2b 5abd
00000310: 51eb de3c f624 7f3d 286f 78bd fd42 223d
00000320: 3e11 253e ca3d 183e 4d7c 7b3b f301 863d
00000330: 4b13 a3ba f5f4 c7bc bba5 173e f612 03be
00000340: fc64 003e a080 1ebd 187f 703d eabc 4c3b
00000350: 98ed f93d 783d 643d c0a2 33be a0a1 4bbe
00000360: 227c 903d 8ab4 f13d 28ba dc3d 2f17 00bd
00000370: 1a0e 793d e936 d3bd f0d1 babd 2557 2bbc
00000380: 8dd4 04be 3179 403e b88d 9b3c 43e7 483e
00000390: 404a 533e fc6a 18bd bff2 da3b 2570 bc3c
000003a0: 6c28 05be 2cdc e7bd db09 c23c 3b2e 183d
000003b0: f68d 023e 08b9 063d a525 bdbd 1189 95ba
000003c0: 80b4 94bd a722 e4bd 818e 9a3d a25c 243e
000003d0: 355a a83d c649 183e 8346 49bd 10d2 1d3e
000003e0: 90d5 04bc 21bd 59bd 84e6 3ebd 4523 5d3e
000003f0: 5726 f6bb d495 98bd c186 31be 9f3c fd3d

dnn/logits/MatMul f4 [1, 64]
-0.25633717 0.21792153 0.14945094 -0.28197363 -0.06425311 0.13178506 0.22360243 0.18774296
-0.28625292 0.1272068 -0.008804435 -0.21501413 0.6542858 -0.2921848 -0.26072845 -0.17304035
0.33374944 0.23457356 -0.07807713 0.20089288 -0.09903154 0.16975774 0.30576405 0.18732044
0.21955033 -0.1640082 0.052864056 -0.25155059 0.16846496 0.09867409 0.1843432 -0.2538871
0.28658527 -0.16228129 0.35580647 -0.043704957 0.23840514 0.16194737 0.14693475 -0.13372713
0.15782046 0.23693171 0.13156106 -0.17937064 0.41073087 0.2748014 0.30827525 0.18575227
0.11141357 0.1470273 0.23662445 0.17113946 -0.03332946 -0.25382346 -0.18493463 0.06554762
-0.11119517 -0.038510818 -0.26224262 -0.2334091 0.12922968 -0.37661654 0.044357173 -0.068733856
00000000: a03e 83be d226 5f3e ab09 193e d95e 90be
00000010: 2297 83bd aaf2 063e 09f8 643e b13f 403e
00000020: be8f 92be 8042 023e 7a40 10bc aa2c 5cbe
00000030: 467f 273f 3f99 95be 337e 85be 7d31 31be
00000040: 35e1 aa3e 0d34 703e e7e6 9fbd ddb6 4d3e
00000050: 0cd1 cabd f9d4 2d3e 1b8d 9c3e eed0 3f3e
00000060: cdd1 603e c4f1 27be fb87 583d 3dcb 80be
00000070: 1482 2c3e a415 ca3d 77c4 3c3e 7dfd 81be
00000080: 4ebb 923e 112d 26be 442c b63e f803 33bd
00000090: 7a20 743e 88d5 253e 1076 163e c4ef 08be
000000a0: b09b 213e 3a9e 723e f1b7 063e f0ac 37be
000000b0: 514b d23e c5b2 8c3e 41d6 9d3e d835 3e3e
000000c0: cc2c e43d 538e 163e ae4d 723e 2f3f 2f3e
000000d0: 7984 08bd 26f5 81be 815f 3dbe d53d 863d
000000e0: 4bba e3bd 85bd 1dbd aa44 86be cc02 6fbe
000000f0: c954 043e e2d3 c0be deaf 353d 56c4 8cbd
