common/flutter/ui_kit/example/.dart_tool/chrome-device/Default/optimization_guide_prediction_model_downloads/913e2c95-c76a-4fda-988d-acee43466175/model.tflite (tflite, 67216 bytes, 5 tensors)

dnn/hiddenlayer_1/bias/part_0 f4 [64]
0.105397314 -0.047266092 -0.107178025 -0.034508526 0.017522976 -0.010075024 -0.024205284 0.014774139
-0.002190032 -0.063163325 0.0769328 -0.0087399045 -0.053801764 0.02171649 0.11111647 0.12951602
0.120184176 -0.084134735 0.01131022 0.088814735 -0.041827247 -0.024734734 -0.04314354 -0.016265804
-0.013021008 -0.037108127 -0.025862174 -0.04825386 -0.012617842 0.11129622 0.019978365 0.11039424
-0.025845956 -0.020379994 0.08082967 0.024589613 -0.019996889 0.03818388 -0.010724976 -0.0676251
0.043327164 -0.059235513 0.018341443 -0.06577352 0.114973284 0.08981677 0.015183388 0.12567654
-0.022437144 -0.062822245 -0.0137166865 -0.10590401 0.050282113 -0.02944731 0.10581629 -0.029575692
-0.1452993 0.019746233 -0.05530303 0.05525876 0.060920864 -0.020595457 0.008454 0.0025113933
00000000: 8cda d73d 179a 41bd 2780 dbbd d058 0dbd
00000010: 588c 8f3c b711 25bc 294a c6bc 3b0f 723c
00000020: a486 0fbb c65b 81bd f28e 9d3d d131 0fbc
00000030: 3d5f 5cbd c8e6 b13c 0891 e33d d99f 043e
00000040: 1f23 f63d d54e acbd 804e 393c 80e4 b53d
00000050: 0c53 2bbd 7fa0 cabc 48b7 30bd dd3f 85bc
00000060: 1156 55bc b1fe 17bd e9dc d3bc d7a5 45bd
00000070: 11bb 4ebc 46ef e33d aba9 a33c 6016 e23d
00000080: e6ba d3bc f2f3 a6bc 078a a53d 2870 c93c
00000090: 84d0 a3bc b366 1c3d cfb7 2fbc 077f 8abd
000000a0: d377 313d f0a0 72bd cb40 963c 44b4 86bd
000000b0: 1d77 eb3d dbf1 b73d bfc3 783c 5ab1 003e
000000c0: 1ace b7bc f3a8 80bd f4bb 60bc 34e4 d8bd
000000d0: 9ef4 4d3d 7c3b f1bc 36b6 d83d b948 f2bc
000000e0: 57c9 14be dac2 a13c 6e85 62bd 0257 623d
000000f0: 2888 793d ceb7 a8bc a582 0a3c 3096 243b

dnn/hiddenlayer_0/bias/part_0 f4 [128]
0.053961184 0.10023688 0.0010497846 -0.041800536 0.029469175 -0.012508617 0.07384869 0.040281355
-0.034755588 0.015228329 -0.054771874 0.074871056 -0.05936019 0.07798252 -0.0032486296 0.060300134
-0.016337872 -0.12776205 -0.040774927 0.026463002 -0.050548375 -0.095052175 -0.030907838 -0.027054375
-0.06653611 0.03317183 -0.07848576 0.024399692 0.018359024 0.019888667 0.017256029 -0.027434206
0.029473245 0.04515114 0.0077244164 0.0041528614 -0.015827846 -0.03512073 -0.003073387 0.004991544
-0.029109068 -0.054630958 -0.025535036 -0.048736528 -0.07376252 0.020019392 -0.050994594 -0.05149942
-0.045980453 0.028126607 -0.0032087856 -0.015516418 -0.08098997 0.09761757 -0.025379423 0.0023041961
-0.050543226 0.06909342 -0.08076878 0.05048118 0.08544644 -0.015461284 -0.014005787 0.029444909
-0.0040783095 0.02208116 0.030216802 0.04171832 -5.8784324e-05 0.036476716 0.026005296 0.09111834
0.070772074 0.046986163 -0.010382842 0.11344903 -0.027654592 -0.0023927304 0.111018695 0.04403847
-0.0026976338 0.01849252 -0.20863779 0.0381009 0.0529697 0.046842817 0.02392646 0.02541282
0.0041829 0.064234875 -0.06255778 -0.024147399 0.03748082 0.058919262 -0.005491932 0.0549362
0.022486914 -0.044673987 0.0052297325 0.010405539 0.01779262 -0.0054529086 -0.04575661 -0.05521791
-0.031445563 -0.08929194 0.06603391 0.024811776 -0.096533425 -0.045588452 -0.17820375 0.07826264
0.076906756 -0.030919742 0.0013217503 0.07949307 -0.05862355 -0.092027776 0.043369837 -0.047768
-0.01937789 0.13213974 -0.05460097 -0.00017489848 -0.011983256 0.06731558 0.047467787 0.017036678
00000000: 6706 5d3d fe48 cd3d ed98 893a 0a37 2bbd
00000010: 5769 f13c f1f0 4cbc fb3d 973d 10fe 243d
00000020: e05b 0ebd 3e80 793c 7958 60bd ff55 993d
00000030: ac23 73bd 4db5 9f3d f6e6 54bb 46fd 763d
00000040: 00d7 85bc 0ed4 02be 9c03 27bd f0c8 d83c
00000050: d00b 4fbd b7aa c2bd 6f32 fdbc 23a1 ddbc
00000060: 1644 88bd 2fdf 073d 24bd a0bd dde1 c73c
00000070: aa65 963c 8fed a23c 845c 8d3c b3bd e0bc
00000080: e071 f13c 67f0 383d 1a1d fd3b ba14 883b
00000090: 66a9 81bc c1da 0fbd e16a 49bb 1b90 a33b
000000a0: 2476 eebc b6c4 5fbd da2e d1bc f49f 47bd
000000b0: ce10 97bd b5ff a33c b5df 50bd 0ef1 52bd
000000c0: 0056 3cbd c569 e63c 7d4a 52bb 9338 7ebc
000000d0: 12de a5bd b8eb c73d 82e8 cfbc ff01 173b
000000e0: 6a06 4fbd da80 8d3d 1a6a a5bd 5bc5 4e3d
000000f0: 8bfe ae3d 5351 7dbc 8778 65bc 7336 f13c
00000100: 57a3 85bb 8de3 b43c 3a89 f73c d4e0 2a3d
00000110: 308f 76b8 9c68 153d 0f09 d53c 419c ba3d
00000120: f3f0 903d 9074 403d cc1c 2abc f757 e83d
00000130: e28b e2bc 5bcf 1cbb c55d e33d af61 343d
00000140: c9ca 30bb a07d 973c 25a5 55be b00f 1c3d
00000150: c2f6 583d 41de 3f3d 6c01 c43c 8c2e d03c
00000160: b510 893b 938d 833d 4b1e 80bd c4d0 c5bc
00000170: 7d85 193d 5355 713d aaf5 b3bb c804 613d
00000180: 7a36 b83c 12fc 36bd 2d5e ab3b fe7b 2a3c
00000190: d4c1 913c 50ae b2bb 486b 3bbd 2d2c 62bd
000001a0: 10cd 00bd b1de b6bd c93c 873d 1142 cb3c
000001b0: 51b3 c5bd f5ba 3abd 0b7b 36be 2a48 a03d
000001c0: 4a81 9d3d 664b fdbc 953e ad3a 43cd a23d
000001d0: 3f1f 70bd 0f79 bcbd 92a4 313d 61a8 43bd
000001e0: 61be 9ebc a44f 073e 44a5 5fbd f464 37b9
000001f0: 6b55 44bc c0dc 893d 956d 423d 8190 8b3c

dnn/hiddenlayer_0/MatMul f4 [128, 12]
0.12929723 0.117200315 -0.041048504 0.123717286 -0.10672658 0.19694164 0.062888645 -0.20990242
0.0007557104 0.19150193 0.06504276 -0.210965 0.09440276 -0.076021746 0.17041256 -0.21081871
0.20730145 0.035468455 0.06471446 -0.2382011 -0.17811441 0.08375197 -0.040521007 -0.19841836
0.17687759 0.052625537 0.22834407 -0.09686176 -0.06673877 -0.23428701 0.034588397 -0.0960851
0.06042562 -0.11428034 0.071988784 -0.119099975 -0.05866853 -0.105891265 -0.04536778 -0.009910996
-0.09919784 -0.13412997 -0.17634231 0.061256956 0.18527958 0.046690278 -0.18120012 0.06282199
-0.000317104 -0.00811401 0.13520794 -0.015400479 -0.0052581914 0.022715852 0.026348568 -0.16617683
0.049093004 0.12630169 0.03681601 -0.26001704 -0.009631453 0.16143037 -0.21308659 0.06599695
-0.049925167 0.0020706083 0.045204744 0.11600572 -0.07249716 0.13261124 -0.033746853 0.09729761
-0.05984917 0.14087673 0.037818987 -0.119465694 -0.09395411 0.02564374 -0.18688071 -0.08479528
0.008526627 0.049663685 0.23529999 0.11698804 -0.039033197 -0.14741473 -0.21253595 -0.03811322
-0.084017456 -0.050292987 0.11777899 0.11916483 -0.03658423 0.12390199 0.07076647 0.09021062
-0.05459902 0.09906856 -0.1230313 -0.084419064 -0.17875451 0.059977446 0.19403617 -0.1135392
-0.04975067 -0.06719713 0.07271122 0.23009871 0.035577517 -0.02647858 0.08208004 0.18524918
0.08014582 0.115494706 0.080384396 -0.16936012 0.0024636446 -0.09546268 0.01838171 -0.1448734
-0.21913426 0.20639962 -0.06875707 0.004391128 0.1487911 -0.024899155 -0.01827333 -0.13450472
0.20917438 -0.14744246 -0.07774091 -0.2126353 -0.0025375562 -0.11005523 -0.0075310855 -0.13822246
0.18508935 -0.01634018 -0.10710925 -0.11477067 0.040514864 -0.0062547247 -0.093261056 0.032827456
0.14548004 -0.22256678 0.22882773 0.13759778 0.10606272 0.018216498 -0.0976516 -0.111175634
0.11255322 0.021933727 -0.03503874 0.13616027 0.17340393 0.017794997 -0.0030113666 -0.21875188
-0.107960835 0.057477023 -0.16692846 -0.088266894 0.062378436 0.054460987 0.030634357 -0.16046326
-0.12697223 0.17248447 -0.23351875 -0.07454619 -0.07434324 0.0017587845 -0.28627867 0.044787094
-0.09069634 -0.032063458 -0.15097113 0.20458533 -0.104995705 -0.10419888 0.07351697 -0.12749101
0.053574823 0.058578964 -0.11275844 0.1676395 0.015259082 0.08216258 -0.0901819 0.2677999
-0.0125157535 -0.11810784 0.073241726 -0.097755015 0.00016122167 0.07384282 -0.28946856 -0.13693103
0.07829372 0.009081451 -0.17065369 0.013161655 -0.11797697 0.025155595 -0.16542321 0.04931784
-0.19957957 0.06913345 -0.17918563 -0.16236557 0.11045994 0.08302319 0.075563915 -0.061468925
0.07653599 0.2018441 -0.010668941 -0.15696177 -0.29864118 -0.06676948 0.21695063 -0.021231199
-0.10748121 0.18433386 0.08624446 -0.006592145 0.105584376 0.054537963 0.078344844 0.113180876
-0.06638168 0.17693174 0.032123543 -0.074223384 0.039911944 -0.24153829 -0.11230108 0.09295155
-0.06553052 0.11849828 0.10758767 0.18048014 -0.017826343 0.07082258 0.025214938 0.15856983
0.03241195 0.061370667 -0.12887277 0.07523599 -0.16145399 -0.07513611 0.085558765 0.16420366
00000000: 7e66 043e b806 f03d 7a22 28bd 7d5f fd3d
00000010: 7793 dabd 12ab 493e c3cb 803d a9f0 56be
00000020: de1a 463a 1519 443e 2335 853d 3507 58be
00000030: 3c56 c13d 4ab1 9bbd a180 2e3e dce0 57be
00000040: d546 543e 5f47 113d 0489 843d fdea 73be
00000050: a063 36be 2786 ab3d 5bf9 25bd 2f2e 4bbe
00000060: 661f 353e e08d 573d 07d3 693e 755f c6bd
00000070: 56ae 88bd efe8 6fbe 90ac 0d3d 44c8 c4bd
00000080: db80 773d d00b eabd db6e 933d b0ea f3bd
00000090: 6a4e 70bd 85dd d8bd 91d3 39bd bb61 22bc
000000a0: 3d28 cbbd 5e59 09be 1493 34be 93e8 7a3d
000000b0: eeb9 3d3e 4e3e 3f3d 868c 39be d1a8 803d
000000c0: fa40 a6b9 a0f0 04bc f373 0a3e 4a52 7cbc
000000d0: e84c acbb 9816 ba3c f4d8 d73c 422a 2abe
000000e0: bf15 493d 3b55 013e 62cc 163d f420 85be
000000f0: 3ecd 1dbc 014e 253e 5f33 5abe 6929 873d
00000100: 557e 4cbd 0bb3 073b 9c28 393d 6894 ed3d
00000110: 6479 94bd 3ecb 073e 243a 0abd f843 c73d
00000120: 6724 75bd fd41 103e 15e8 1a3d 6eaa f4bd
00000130: 036b c0bd d212 d23c a85d 3fbe 26a9 adbd
00000140: 44b3 0b3c 266c 4b3d 7bf2 703e 6d97 ef3d
00000150: 46e1 1fbd e3f3 16be 06a3 59be 9c1c 1cbd
00000160: 5811 acbd 0500 4ebd 1c36 f13d b10c f43d
00000170: 58d9 15bd 54c0 fd3d 03ee 903d 58c0 b83d
00000180: 39a3 5fbd 75e4 ca3d d6f7 fbbd e7e3 acbd
00000190: 6c0b 37be e9aa 753d 6bb1 463e 3d87 e8bd
000001a0: 5cc7 4bbd a69e 89bd 9fe9 943d ff9e 6b3e
000001b0: bbb9 113d 9be9 d8bc 9419 a83d f6b1 3d3e
000001c0: 7e23 a43d 7d88 ec3d 93a0 a43d bd6c 2dbe
000001d0: 1975 213b f081 c3bd 3d95 963c b159 14be
000001e0: bb64 60be 6c5a 533e 82d0 8cbd 74e3 8f3b
000001f0: b25c 183e 50f9 cbbc f3b1 95bc 9bbb 09be
00000200: cf31 563e 28fb 16be a036 9fbd 11bd 59be
00000210: 214d 26bb a364 e1bd 53c7 f6bb 308a 0dbe
00000220: 1088 3d3e d7db 85bc 185c dbbd e30c ebbd
00000230: eaf2 253d 6ff4 ccbb a7ff bebd 1576 063d
00000240: b8f8 143e 8ce8 63be d151 6a3e 6fe6 0c3e
00000250: 6937 d93d c43a 953c 90fd c7bd 0db0 e3bd
00000260: 4d82 e63d 5cae b33c c884 0fbd 996d 0b3e
00000270: cd90 313e d0c6 913c 595a 45bb 7e00 60be
00000280: 921a ddbd 076d 6b3d 4bef 2abe 46c5 b4bd
00000290: 8880 7f3d 7c12 5f3d e7f4 fa3c 7b50 24be
000002a0: 0205 02be c59f 303e 8a1f 6fbe acab 98bd
000002b0: 4541 98bd 0487 e63a 1e93 92be ac72 373d
000002c0: 01bf b9bd f954 03bd 2d98 1abe d17e 513e
000002d0: fd07 d7bd 3966 d5bd 1190 963d 018d 02be
000002e0: 4671 5b3d 7ff0 6f3d e6ed e6bd b0a9 2b3e
000002f0: 3b01 7a3c db44 a83d 4ab1 b8bd 121d 893e
00000300: e00e 4dbc 86e2 f1bd c2ff 953d c833 c8bd
00000310: 9d0d 2939 e83a 973d 3935 94be a637 0cbe
00000320: 7558 a03d 5eca 143c d7bf 2ebe fba3 573c
00000330: e99d f1bd 1b13 ce3c b464 29be 8101 4a3d
00000340: 965e 4cbe d795 8d3d 707c 37be 2943 26be
00000350: d238 e23d 1008 aa3d 41c1 9a3d d7c6 7bbd
00000360: e7be 9c3d 38b0 4e3e c8cc 2ebc 96ba 20be
00000370: 7fe7 98be 70be 88bd 4e28 5e3e 0ded adbc
00000380: 1c1f dcbd 04c2 3c3e efa0 b03d ec02 d8bb
00000390: 9f3c d83d 3363 5f3d 4373 a03d 60cb e73d
000003a0: 1ef3 87bd 982d 353e fa93 033d 6e02 98bd
000003b0: b57a 233d d055 77be 1cfe e5bd 625d be3d
000003c0: de34 86bd 3aaf f23d ed56 dc3d c9cf 383e
000003d0: 8d08 92bc 6e0b 913d 8f8f ce3c 2160 223e
000003e0: 65c2 043d cf5f 7b3d 39f7 03be 5415 9a3d
000003f0: 3254 25be f6e0 99bd 6f39 af3d 0125 283e

dnn/hiddenlayer_1/MatMul f4 [64, 128]
0.0497878 0.004589806 -0.021783924 -0.093961045 0.13027133 -0.12277996 0.1876951 -0.09972128
0.14858076 -0.14073078 0.026025563 -0.17164308 0.027933916 0.057122048 0.050219353 -0.026517848
0.08937152 -0.094190426 0.028642135 -0.12284168 0.04019082 -0.1153403 0.070524395 -0.016248116
-0.032338165 0.06375898 -0.10056393 -0.120705396 -0.07751024 -0.021214234 0.15441464 0.08990925
0.011206857 -0.089383125 -0.06962537 -0.10968252 -0.105269596 0.17109776 0.037332717 0.0068210857
0.018864803 -0.006306163 -0.17526264 0.19626708 0.15049532 -0.009194032 0.14029245 -0.09650294
0.18237612 0.0855602 -0.010991986 -0.0557681 -0.1007404 0.07591729 -0.022266312 -0.042803522
0.121816695 0.10461199 -0.16272406 1.9456544e-05 0.1556033 -0.10482842 0.19029476 -0.036208224
0.067307174 0.039648335 0.034395713 -0.024016175 -0.07637716 -0.119599395 0.018931083 0.14360073
-0.08961995 0.122170195 -0.03849897 0.0030966396 -0.12915178 -0.12743111 0.12213503 0.0958645
0.17910919 0.0036202536 0.18809341 -0.14179206 0.09350416 0.1758093 0.18402176 -0.014412554
-0.18430252 -0.03314114 0.004820277 0.08838711 0.14328505 0.043837488 0.08130907 0.062416766
-0.018535797 -0.15594755 0.036595717 0.11808985 0.107290074 -0.037108243 -0.003801672 -0.13318874
-0.08927513 0.15996367 -0.06192011 -0.0078359 0.13939609 -0.13914034 0.143635 0.023290835
0.176422 0.10794705 -0.18051775 0.09693278 0.026939267 0.06692213 0.1273677 -0.09454874
0.05427991 0.14689796 -0.13045558 -0.02288869 -0.19920646 0.18496546 -0.07658015 -0.010802809
-0.062233187 -0.17011365 0.15081467 -0.12225249 0.1668689 0.13929889 0.028378809 0.020991674
0.006427308 -0.11207212 -0.07538572 -0.047798015 0.12100141 -0.1205179 -0.012455679 -0.093727805
0.049442433 0.117497005 0.16280589 0.06070109 -0.029531946 0.14551647 -0.09898788 0.010334678
0.15492065 -0.17931555 0.15443933 0.15422146 -0.1430196 -0.045007598 -0.13496357 0.0020455825
0.13369723 -0.12347449 -0.06959569 0.022973748 0.09781275 0.012872796 -0.16871656 0.07352676
0.0343706 0.024935806 0.07498273 0.17408746 0.09982461 0.120999396 -0.05390951 0.108556874
0.06322319 0.086388886 0.047421962 -0.14486295 -0.08297787 0.022024026 -0.030733144 0.10702519
0.12323925 0.090717666 -0.061491955 -0.008479953 0.1433512 0.12667207 -0.00691918 0.023391975
0.09443777 0.12831953 0.017361458 0.10447728 -0.075613566 0.09240109 -0.0022189755 -0.17935218
0.16422945 0.002176591 -0.036970403 -0.1180598 -0.15712498 0.10325995 0.15312834 0.047340132
0.06089485 -0.12876415 0.048173867 0.122043446 -0.04348457 -0.12469203 -0.13528664 -0.09346966
0.075202204 -0.124247685 -0.09531271 -0.062385704 -0.025387442 0.16052209 -0.12102667 -0.15159954
-0.10091982 -0.076464355 0.07105342 0.13993835 0.15055177 -0.10105145 -0.12654217 -0.030131467
0.12549703 0.046193697 -0.024359751 -0.12839593 -0.095726 0.14420295 -0.0756002 0.10013581
0.007887334 0.1280762 0.177842 -0.08321676 0.17540845 -0.06746075 -0.014540745 -0.09622015
-0.07878106 -0.056571 0.10147279 -0.08138665 0.05948028 0.066173255 0.10951968 -0.07269529
00000000: 4bee 4b3d 1566 963b 3374 b2bc a66e c0bd
00000010: d965 053e 0f74 fbbd 2533 403e ac3a ccbd
00000020: 8e25 183e bb1b 10be 9033 d53c 34c3 2fbe
00000030: abd5 e43c cff8 693d cfb2 4d3d f53b d9bc
00000040: 6a08 b73d e9e6 c0bd e9a2 ea3c 6b94 fbbd
00000050: 219f 243d 8937 ecbd 186f 903d c51a 85bc
00000060: 0675 04bd 1194 823d 76f4 cdbd 6434 f7bd
00000070: b0bd 9ebd 79c9 adbc df1e 1e3e 5722 b83d
00000080: f79c 373c 800e b7bd bf97 8ebd 3ba1 e0bd
00000090: 9697 d7bd 4034 2f3e 31ea 183d 6a83 df3b
000000a0: 5c8a 9a3c eea3 cebb 0d78 33be 3dfa 483e
000000b0: 721b 1a3e 91a2 16bc d3a8 0f3e 55a3 c5bd
000000c0: cec0 3a3e 303a af3d bb17 34bc 176d 64bd
000000d0: fc50 cebd 867a 9b3d d767 b6bc bf52 2fbd
000000e0: 087b f93d d03e d63d 23a1 26be 9c36 a337
000000f0: 7956 1f3e 48b0 d6bd a1dc 423e 134f 14bd
00000100: 58d8 893d 4b66 223d 85e2 0c3d 92bd c4bc
00000110: a16b 9cbd 87f0 f4bd 5c15 9b3c 120c 133e
00000120: aa8a b7bd 5e34 fa3d 19b1 1dbd fef0 4a3b
00000130: 5d40 04be 4d7d 02be ee21 fa3d 9b54 c43d
00000140: 6668 373e c741 6d3b 8f9b 403e f031 11be
00000150: 1c7f bf3d 5a07 343e 3370 3c3e a222 6cbc
00000160: cdb9 3cbe 01bf 07bd 6af3 9d3b 4d04 b53d
00000170: 51b9 123e f08e 333d 5f85 a63d b9a8 7f3d
00000180: 62d8 97bc b7b0 1fbe 64e5 153d 17d9 f13d
00000190: e6ba db3d d0fe 17bd 7925 79bb a162 08be
000001a0: e1d5 b6bd 84cd 233e f19f 7dbd 2662 00bc
000001b0: d9bd 0e3e ce7a 0ebe 0e15 133e 6ccc be3c
000001c0: f8a7 343e 5813 dd3d a5d9 38be b284 c63d
000001d0: bdaf dc3c 780e 893d ae6c 023e c5a2 c1bd
000001e0: 9c54 5e3d 6b6c 163e 2696 05be 1081 bbbc
000001f0: c7fc 4bbe 9667 3d3e 0ed6 9cbd 44fe 30bc
00000200: 3ae8 7ebd 4632 2ebe 296f 1a3e 835f fabd
00000210: aedf 2a3e 5ea4 0e3e ad7a e83c bbf6 ab3c
00000220: 2b9c d23b 1186 e5bd d463 9abd dac7 43bd
00000230: 96cf f73d 17d2 f6bd e712 4cbc 5df4 bfbd
00000240: 2684 4a3d 45a2 f03d 96b6 263e b5a1 783d
00000250: fbec f1bc 4502 153e 28ba cabd c852 293c
00000260: 85a3 1e3e 7f9e 37be 5825 1e3e 3bec 1d3e
00000270: bb73 12be e359 38bd e433 0abe 2e0f 063b
00000280: ede7 083e 32e0 fcbd 2f88 8ebd 7133 bc3c
00000290: 0d52 c83d 6be8 523c 09c4 2cbe 3395 963d
000002a0: 30c8 0c3d 2d46 cc3c 8c90 993d fc43 323e
000002b0: d870 cc3d 88ce f73d 38d0 5cbd 1153 de3d
000002c0: 297b 813d a8ec b03d 883d 423d f456 14be
000002d0: 4df0 a9bd bb6b b43c 13c4 fbbc 0630 db3d
000002e0: dc64 fc3d 2fca b93d fdde 7bbd 80ef 0abc
000002f0: a8ca 123e 53b6 013e 4aba e2bb 87a0 bf3c
00000300: 9768 c13d 3266 033e 9e39 8e3c 2ff8 d53d
00000310: 49db 9abd c83c bd3d 3b6c 11bb 19a8 37be
00000320: c42b 283e 23a5 0e3b 476e 17bd 56c9 f1bd
00000330: 5fe5 20be f479 d33d adcd 1c3e bae7 413d
00000340: e16c 793d c0da 03be f651 453d eaf1 f93d
00000350: e01c 32bd 895e ffbd 9588 0abe 056d bfbd
00000360: 9d03 9a3d 9275 febd 4f33 c3bd 2788 7fbd
00000370: 53f9 cfbc e75f 243e d5dc f7bd e93c 1bbe
00000380: 0daf cebd 5899 9cbd 7584 913d 004c 0f3e
00000390: 3e2a 1a3e 10f4 cebd 4594 01be 44d6 f6bc
000003a0: 4b82 003e 9a35 3d3d 1a8e c7bc 397a 03be
000003b0: fe0b c4bd f0a9 133e 47d4 9abd 0114 cd3d
000003c0: e039 013c 6826 033e 371c 363e 8c6d aabd
000003d0: 469e 333e dd28 8abd 4e3c 6ebc 120f c5bd
000003e0: f757 a1bd feb6 67bd f7d0 cf3d 0bae a6bd
000003f0: 98a1 733d d885 873d db4b e03d 45e1 94bd

dnn/logits/MatMul f4 [1, 64]
0.36530298 -0.11598305 0.28515324 -0.20676136 0.11673234 0.18508013 0.4391702 0.21386155
-0.1827284 -0.21283008 0.21467736 -0.34916896 -0.20078138 -0.12084062 0.35887673 0.3049285
0.30103946 -0.32229283 0.066038825 0.34559873 -0.13028958 -0.13251582 -0.23869686 0.1551269
-0.015220458 -0.08895379 -0.13696724 -0.007879726 -0.043230865 0.33639672 0.088498674 0.28062233
-0.05056532 -0.23754087 0.19985849 0.26142597 -0.3296783 0.12155406 -0.049923472 -0.20254678
0.37225813 -0.15512797 0.045845937 -0.2108753 0.390073 0.21287704 0.11386779 0.36636907
-0.19894387 -0.2719544 0.018052904 0.17547312 0.14594325 -0.0643441 0.29634544 -0.27117988
0.2412078 0.15050788 -0.33235228 0.20464884 0.19617923 -0.05872501 -0.33513856 -0.059163556
00000000: fe08 bb3e 8588 edbd 9bff 913e 40b9 53be
00000010: 5d11 ef3d a585 3d3e ebda e03e 86fe 5a3e
00000020: 271d 3bbe 21f0 59be 62d4 5b3e 46c6 b2be
00000030: a299 4dbe 497b f7bd b1be b73e 971f 9c3e
00000040: d821 9a3e 9103 a5be 5d3f 873d 51f2 b03e
00000050: a26a 05be 3ab2 07be f36c 74be 96d9 1e3e
00000060: 3a5f 79bc 682d b6bd 2441 0cbe f719 01bc
00000070: d912 31bd 313c ac3e cb3e b53d bbad 8f3e
00000080: 951d 4fbd ea3d 73be b4a7 4c3e a0d9 853e
00000090: 98cb a8be 56f1 f83d 8e7c 4cbd 6c68 4fbe
000000a0: 9e98 be3e ded9 1ebe f3c8 3b3d b2ef 57be
000000b0: a6b7 c73e 70fc 593e 8433 e93d ba94 bb3e
000000c0: f1b7 4bbe 9b3d 8bbe afe3 933c 3aaf 333e
000000d0: 2672 153e d7c6 83bd 97ba 973e 17d8 8abe
000000e0: 2dff 763e bd1e 1a3e 142a aabe 778f 513e
000000f0: 35e3 483e a389 70bd 4897 abbe 7c55 72bd
